model/keypoint_classifier/keypoint_classifier.tflite (tflite, 7840 bytes, 8 tensors)

sequential_194/dense_776/BiasAdd/ReadVariableOp/resource f4 [32]
00000000: 2a55 ad3d ca8c 1d3e 13c6 8c3b 0d19 00bd
00000010: 9e5a 243d 1355 233d 496d db3d 717d 38bd
00000020: fde9 14bd 8eec 263d 7f9d 97bc 8d77 843e
00000030: 3216 773e 20ae 543e 36ed 813e 9cec e33d
00000040: 30bb fdbd 2124 b0bc 5a4b 5c3d 905a 263e
00000050: e42e 39be 46d1 c03d 4de9 dd3c a497 fd3d
00000060: 4ca8 dc3d 1214 3f3e d381 0d3e 728f 5f3e
00000070: 29b3 753d f04e 35bd ac1d 3f3e 878c 6cbb
0.084635094 0.15385738 0.004296073 -0.03127389 0.04012548 0.039876055 0.10714204 -0.045041505
-0.03635596 0.04075294 -0.018507717 0.2587246 0.2412956 0.20769548 0.2537629 0.11129114
-0.12389219 -0.021501603 0.0537828 0.16245484 -0.18084294 0.09414916 0.027088786 0.12382439
0.107742876 0.1866 0.13819055 0.21832064 0.059985314 -0.044264734 0.18663663 -0.0036094503

sequential_194/dense_777/BiasAdd/ReadVariableOp/resource f4 [32]
00000000: 5992 02bc e437 e0bc 24ef 92bd 4a71 263e
00000010: 8a45 7e3e a87f 313e 584a b63d cf77 23bd
00000020: 3799 d23c 62e3 093e 1911 7b3e 40f1 e03b
00000030: c368 3f3e 67bc 2a3e c7ef 313e 7400 5cbd
00000040: 7ac4 883d e009 f33d 6cb6 a43e 5c69 00be
00000050: fcae 4c3d cbb9 173e 9a98 f73d f6e4 713a
00000060: 249b dbbd 5f2d 9cbd ac21 50bd 49f1 fd3d
00000070: 5851 863d f847 5f3c 9f95 d73d ffbf 6ebc
-0.007969462 -0.0273704 -0.07174519 0.16254154 0.24831215 0.17333853 0.08900899 -0.03990918
0.025707824 0.13465646 0.24518241 0.0068646967 0.18692307 0.16673432 0.17376624 -0.05371137
0.066781 0.11867118 0.32170427 -0.12540191 0.049971566 0.14816968 0.12089653 0.0009227538
-0.1072295 -0.07625841 -0.050813362 0.12399537 0.06558484 0.0136279985 0.10526585 -0.014572143

sequential_194/dense_778/BiasAdd/ReadVariableOp/resource f4 [16]
00000000: 0564 963e 2f8e 143e 6984 53bc 9c07 3a3d
00000010: 25ae 383b 0000 0000 c927 053e f408 38bc
00000020: e61e 0c3e 1370 9bbc ae31 02be 3d44 113e
00000030: 6564 2c3e 79f1 e93c c444 bc3d fcb0 2cbc
0.29373184 0.14507364 -0.012909987 0.045417413 0.002817997 0.0 0.13003458 -0.011232603
0.13683662 -0.01897434 -0.12714264 0.14186187 0.16835172 0.028557526 0.091928035 -0.010540243

sequential_194/dense_779/BiasAdd/ReadVariableOp/resource f4 [8]
00000000: 2560 ac3c 6d80 6bbd d87a 0e3e c757 7e3d
00000010: a6cd 263d 29c2 84bd 6f71 0d3c fcf1 d5bd
0.021041939 -0.057495523 0.13914049 0.06209543 0.040723465 -0.064823456 0.008633002 -0.104465455

sequential_194/dense_776/MatMul i1 [32, 42] scale=0.008272675 zero_point=0
00000000: 0506 d3c6 06fe fbda 09d9 eeed f0ee f6c2
00000010: 03bf cc24 12e3 f417 0b35 e704 ddfe 0afe
00000020: 0d1f e61d fee0 29fd 0d2b f1e5 9fac afc0
00000030: c1f2 cf12 e700 fad7 0b00 1d1e d804 2812
00000040: 00e7 081b e2d9 0b0b fd20 1d12 09d1 d3da
00000050: efe4 e5e3 0106 5a25 5333 0d3b 2457 26e2
00000060: 2125 0b00 0204 0b00 ed09 e616 f609 16ba
00000070: eedc 08f4 e205 f9e6 efd9 f5cf 0d0a 0f1e
00000080: d4cd d1e6 f3d8 dfd2 c9da f113 ff14 2f1f
00000090: e011 f0e2 da00 dbc9 f2e1 180e 0211 19dd
000000a0: ff1c 0ee1 d3fb f22c f402 04c5 d2fd d7d4
000000b0: 0af6 eded 14ca ecea 1be7 edf3 10d4 fe15
000000c0: 2416 f8d0 e4d9 fe05 f10e 06e5 f0aa 01c1
000000d0: 12fc 0de2 3800 3fe1 29ec 5b32 de2f 2eef
000000e0: 3dd9 32e5 0b1a 0cf3 31fe 0af4 122b 2516
000000f0: 211d 150a 0b41 1b22 0622 1b0d 1719 44e3
0.041363373 0.04963605 -0.37227038 -0.47981516 0.04963605 -0.01654535 -0.041363373 -0.31436163
0.07445408 -0.3226343 -0.14890815 -0.15718082 -0.1323628 -0.14890815 -0.08272675 -0.51290584
0.024818026 -0.53772384 -0.4301791 0.2978163 0.14890815 -0.23990758 -0.0992721 0.19027153
0.090999424 0.43845177 -0.20681687 0.0330907 -0.28954363 -0.01654535 0.08272675 -0.01654535
0.10754477 0.25645292 -0.21508954 0.23990758 -0.01654535 -0.2647256 0.33917966 -0.024818026
0.10754477 0.35572502 -0.12409012 -0.22336222 -0.80244946 -0.6949047 -0.6700867 -0.5294512
-0.52117854 -0.11581745 -0.40536106 0.14890815 -0.20681687 0.0 -0.04963605 -0.33917966
0.090999424 0.0 0.23990758 0.24818024 -0.330907 0.0330907 0.330907 0.14890815
0.0 -0.20681687 0.0661814 0.22336222 -0.24818024 -0.3226343 0.090999424 0.090999424
-0.024818026 0.2647256 0.23990758 0.14890815 0.07445408 -0.38881573 -0.37227038 -0.31436163
-0.14063548 -0.2316349 -0.22336222 -0.23990758 0.008272675 0.04963605 0.74454075 0.30608898
0.68663204 0.4219064 0.10754477 0.4880878 0.2978163 0.7197227 0.31436163 -0.24818024
0.27299827 0.30608898 0.090999424 0.0 0.01654535 0.0330907 0.090999424 0.0
-0.15718082 0.07445408 -0.21508954 0.18199885 -0.08272675 0.07445408 0.18199885 -0.57908726
-0.14890815 -0.2978163 0.0661814 -0.0992721 -0.24818024 0.041363373 -0.057908725 -0.21508954
-0.14063548 -0.3226343 -0.090999424 -0.40536106 0.10754477 0.08272675 0.12409012 0.24818024
-0.3639977 -0.4219064 -0.38881573 -0.21508954 -0.10754477 -0.330907 -0.27299827 -0.38054305
-0.45499712 -0.31436163 -0.12409012 0.15718082 -0.008272675 0.1654535 0.38881573 0.25645292
-0.2647256 0.14063548 -0.1323628 -0.24818024 -0.31436163 0.0 -0.30608898 -0.45499712
-0.11581745 -0.25645292 0.1985442 0.11581745 0.01654535 0.14063548 0.20681687 -0.28954363
-0.008272675 0.2316349 0.11581745 -0.25645292 -0.37227038 -0.041363373 -0.11581745 0.3639977
-0.0992721 0.01654535 0.0330907 -0.4880878 -0.38054305 -0.024818026 -0.33917966 -0.3639977
0.08272675 -0.08272675 -0.15718082 -0.15718082 0.1654535 -0.44672444 -0.1654535 -0.18199885
0.22336222 -0.20681687 -0.15718082 -0.10754477 0.1323628 -0.3639977 -0.01654535 0.17372617
0.2978163 0.18199885 -0.0661814 -0.3970884 -0.2316349 -0.3226343 -0.01654535 0.041363373
-0.12409012 0.11581745 0.04963605 -0.22336222 -0.1323628 -0.71145004 0.008272675 -0.52117854
0.14890815 -0.0330907 0.10754477 -0.24818024 0.4632698 0.0 0.52117854 -0.25645292
0.33917966 -0.1654535 0.7528134 0.41363373 -0.28127095 0.38881573 0.38054305 -0.14063548
0.5046332 -0.3226343 0.41363373 -0.22336222 0.090999424 0.21508954 0.0992721 -0.10754477
0.40536106 -0.01654535 0.08272675 -0.0992721 0.14890815 0.35572502 0.30608898 0.18199885
0.27299827 0.23990758 0.17372617 0.08272675 0.090999424 0.53772384 0.22336222 0.28127095
0.04963605 0.28127095 0.22336222 0.10754477 0.19027153 0.20681687 0.5625419 -0.23990758

sequential_194/dense_777/MatMul i1 [32, 32] scale=0.008883519 zero_point=0
00000000: 1bef 0ff9 e1c9 0ed3 ecef 47d5 3fd5 16ee
00000010: fc0f 63c2 44f4 17f4 390a 110c 289a 160a
00000020: 00e3 f1de 10dd fce2 08eb 05f6 ec1c e0ea
00000030: de05 041d df02 05d4 e111 f9f6 000e 02fd
00000040: eedd e91e eef2 f419 15f0 19e1 f808 f2e3
00000050: fd07 05e3 0df0 f1dc 03fd 18df 0df0 da11
00000060: 2cf5 0ced 1037 26f0 1244 de2f 902f 4a35
00000070: f219 d737 cd05 db54 f31c d3fc f9ce 260b
00000080: 2327 e6e0 2611 0bbb e003 c32d e862 552f
00000090: f3f7 c734 97cc 2f38 4134 0101 dbba 14eb
000000a0: ecd6 f109 12f5 1c13 d929 1c02 371f f842
000000b0: 161e fd1c 350e 251f 121f 1f3f 20e5 383c
000000c0: f333 e12b 0b08 0526 3227 3202 fff2 01c5
000000d0: 2ff0 02e2 e333 1efc b2f8 ccdc e417 13dd
000000e0: fa0a 100b 0407 e7e8 e7f5 ffe1 09f8 dfeb
000000f0: e3f8 111a 0ef1 f5df f1eb d813 e51e 03ee
0.23985502 -0.15101983 0.13325278 -0.06218463 -0.2753891 -0.48859355 0.12436926 -0.39975837
-0.17767039 -0.15101983 0.63072985 -0.38199133 0.5596617 -0.38199133 0.19543742 -0.15990335
-0.035534076 0.13325278 0.8794684 -0.5507782 0.6040793 -0.10660223 0.20432094 -0.10660223
0.5063606 0.088835195 0.15101983 0.10660223 0.35534078 -0.9061189 0.19543742 0.088835195
0.0 -0.25762206 -0.13325278 -0.30203965 0.1421363 -0.31092316 -0.035534076 -0.26650557
0.07106815 -0.1865539 0.044417597 -0.088835195 -0.17767039 0.24873853 -0.2842726 -0.19543742
-0.30203965 0.044417597 0.035534076 0.25762206 -0.29315612 0.017767038 0.044417597 -0.39087483
-0.2753891 0.15101983 -0.06218463 -0.088835195 0.0 0.12436926 0.017767038 -0.026650557
-0.15990335 -0.31092316 -0.20432094 0.26650557 -0.15990335 -0.12436926 -0.10660223 0.22208798
0.1865539 -0.1421363 0.22208798 -0.2753891 -0.07106815 0.07106815 -0.12436926 -0.25762206
-0.026650557 0.06218463 0.044417597 -0.25762206 0.11548575 -0.1421363 -0.13325278 -0.3198067
0.026650557 -0.026650557 0.21320446 -0.29315612 0.11548575 -0.1421363 -0.33757374 0.15101983
0.39087483 -0.09771871 0.10660223 -0.16878687 0.1421363 0.48859355 0.33757374 -0.1421363
0.15990335 0.6040793 -0.30203965 0.4175254 -0.9949541 0.4175254 0.6573804 0.4708265
-0.12436926 0.22208798 -0.36422428 0.48859355 -0.45305946 0.044417597 -0.3286902 0.7462156
-0.11548575 0.24873853 -0.39975837 -0.035534076 -0.06218463 -0.44417596 0.33757374 0.09771871
0.31092316 0.34645724 -0.2309715 -0.2842726 0.33757374 0.15101983 0.09771871 -0.61296284
-0.2842726 0.026650557 -0.5418947 0.39975837 -0.21320446 0.87058485 0.7550991 0.4175254
-0.11548575 -0.079951674 -0.5063606 0.461943 -0.9327695 -0.461943 0.4175254 0.49747705
0.57742876 0.461943 0.008883519 0.008883519 -0.3286902 -0.6218463 0.17767039 -0.1865539
-0.17767039 -0.3731078 -0.13325278 0.079951674 0.15990335 -0.09771871 0.24873853 0.16878687
-0.34645724 0.36422428 0.24873853 0.017767038 0.48859355 0.2753891 -0.07106815 0.58631223
0.19543742 0.26650557 -0.026650557 0.24873853 0.4708265 0.12436926 0.3286902 0.2753891
0.15990335 0.2753891 0.2753891 0.5596617 0.2842726 -0.23985502 0.49747705 0.53301114
-0.11548575 0.45305946 -0.2753891 0.38199133 0.09771871 0.07106815 0.044417597 0.33757374
0.44417596 0.34645724 0.44417596 0.017767038 -0.008883519 -0.12436926 0.008883519 -0.5241276
0.4175254 -0.1421363 0.017767038 -0.26650557 -0.25762206 0.45305946 0.26650557 -0.035534076
-0.6929145 -0.07106815 -0.461943 -0.3198067 -0.24873853 0.20432094 0.16878687 -0.31092316
-0.053301115 0.088835195 0.1421363 0.09771871 0.035534076 0.06218463 -0.22208798 -0.21320446
-0.22208798 -0.09771871 -0.008883519 -0.2753891 0.079951674 -0.07106815 -0.29315612 -0.1865539
-0.25762206 -0.07106815 0.15101983 0.2309715 0.12436926 -0.13325278 -0.09771871 -0.29315612
-0.13325278 -0.1865539 -0.35534078 0.16878687 -0.23985502 0.26650557 0.026650557 -0.15990335

sequential_194/dense_778/MatMul f4 [16, 32]
00000000: 52f4 3d3f 92e8 69be 81b7 143d bbdd 0cbe
00000010: 5e5d 033f 40ea d93e 4215 82be 8f78 6ebe
00000020: a327 b93e 26ff 283f 3954 de3e 588c 4c3f
00000030: 8ea4 103f ec17 703d 5214 3f3d 318a 023f
00000040: 463f a33e b6ec a339 21c3 473f 8c47 af3d
00000050: 2269 babe 72f4 303f 0587 95be 9a29 0fbf
00000060: a0b2 26bf c5ce afbd 0fd8 09bf c4f8 6d3e
00000070: ab7d acbe 7946 75be f017 993e c1aa 9dbe
00000080: c7d3 a53e de4f 553e 3825 2a3e 7f6f 18bd
00000090: 7fb9 e8be 6792 14be 97c1 323f be0b abbe
000000a0: 9101 af3d 9bcd dbbb e85c 2abd 8c42 b83d
000000b0: 60e0 5fbf 906d 9abe 2f14 643e b560 48bf
000000c0: 2745 df3e 8b2a 653e 660a 2cbe b149 8fbd
000000d0: 34c3 edbd 83be 3bbe 6671 143f 76e5 5b3f
000000e0: 4139 acbf f539 07bf 864f b53e eb6f 853e
000000f0: 7c0f bbbb b316 fa3e 587a 97be b4f7 1a3f
00000100: 1c03 773d 6400 dcbd d850 40bd ef36 1f3c
00000110: 92fa 44be 8b05 983e 3311 05be 8b38 50be
00000120: 8731 a93e 40e0 90be 581b 033e a94b 31be
00000130: f818 a73e 5b02 8fbe 96d0 82be 910e 82be
00000140: 723b f83d 9b73 1abe c0a8 803e 94f6 12be
00000150: 3654 a6be 7283 b83d 2089 50bc 8a07 ddbb
00000160: 50c5 59be 366c 6bbe 06f2 123d 1d1c bfbe
00000170: 5655 633e a5c4 4fbe ddb5 8abe 810a acbe
00000180: 5a47 3e3f ef60 8d3e b29c 3e3d 7850 bebd
00000190: 97ff 25bf a3b8 1a3e 26ea 093f 166c 52be
000001a0: 07eb ea3e 2c88 913d 9708 92bd c30a 10bd
000001b0: 63fd 4abf 9278 eb3e 0d09 19be c611 fc3d
000001c0: 1886 0a3f 4f7c 05bf be0a 93be 98e3 f53e
000001d0: f320 693e 8550 123f 38c0 3abe d9a8 babe
000001e0: de1a 47be 5b75 6cbf 5958 99bd 6e7c b9be
000001f0: 2dfd 01bf 8a48 2a3e 049f f3bc 0dc4 0d3f
00000200: 8114 c8be f405 1dbe ebf0 a9bd e9ca 77bd
00000210: a0fa 133d e9b8 31be db8f 843e f7f6 8f3e
00000220: 98b1 753e a958 243f 10ef 5cbf 47a3 55be
00000230: f9d3 383f 912e e53d 518f 50be bf4d d2be
00000240: 16ed 0a3f a33a 9dbc e69e ae3e 831b de3e
00000250: 3afb 8dbc a928 40bf 97af a23e f77c 203f
00000260: 21b3 2e3f b708 f93d fdf3 153f 7b07 1ebd
00000270: 19ca 1a3f 932d 08be 8356 0b3f 5282 42bd
00000280: e6a2 3a3e 018f a8be 22f7 313e 650d 9fbe
00000290: ecda 92be 5029 b0be 3cee b4be c63f aabe
000002a0: 4cc9 d43d 920b 253e c4a6 f53d 719e 8ebe
000002b0: a0b5 32bd 3d92 20be 33ee b0be 0076 d23c
000002c0: 74b1 86be 836a 23be 066d 1c3e de63 763e
000002d0: 0006 7abe 659a 82be 14e8 f23d 3056 e23d
000002e0: f228 57be 31a0 9cbe 4481 0b3e fb87 a3be
000002f0: 8813 03be 79a5 0dbe 985f 3dbd d580 12be
00000300: ff8a 7fbf c682 2d3d 6530 e5bd cb65 3e3f
00000310: 4f5f 943e 828a 8d3e 3381 203f 6d1b ce3d
00000320: 699b 3f3e d9c3 34bf 6aea 553e 7bd6 afbe
00000330: ff45 a9bd 9a03 803e 604d a73e 246a 003f
00000340: 27cc 6abe 84b6 573e dc3a e43d c8e4 febe
00000350: 71b7 323f 40b9 ca3a bf98 84be b3b4 a3be
00000360: daa2 263e 0bed c23c 2d28 86bd 9002 d33e
00000370: d2ce 9f3d 3be5 313f aea4 9f3e a899 b93e
00000380: f7de 753e c7f2 9a3d d177 0fbe 033b 073d
00000390: da1e f23d 9e1b a5be 94af 7d3d a806 983e
000003a0: ce01 c93e c901 7c3f b85a 40bf ddd8 2abe
000003b0: a13d 603f e600 2b3f acbf 763e c529 d33d
000003c0: e65f c23e c04e e83b f290 abbe dacb 453f
000003d0: beea 373e a12f 63bd f4fa b2bc 65c5 e4be
000003e0: 6295 523f 993d 0b3d 1ddc 3d3f b358 ddbe
000003f0: e8e3 4f3e b647 ecbe f420 333e 88e7 71be
0.7420093 -0.22842625 0.036307815 -0.13756458 0.5131434 0.4256153 -0.25406843 -0.23288177
0.36163053 0.66014326 0.43423632 0.7990165 0.5650109 0.058616564 0.04665024 0.50992113
0.3188421 0.00031266146 0.7803212 0.08558568 -0.36408335 0.69122994 -0.29204574 -0.55922854
-0.6511631 -0.0858436 -0.53845304 0.23239428 -0.33689627 -0.23952664 0.29901075 -0.30794337
0.32388136 0.20831248 0.1661576 -0.037215706 -0.45454022 -0.14508973 0.69826645 -0.33407396
0.08545221 -0.0067078597 -0.04159251 0.08997068 -0.87451744 -0.30161715 0.22273324 -0.78272563
0.43607447 0.2237951 -0.16800842 -0.069964774 -0.11609498 -0.18334393 0.5798553 0.85897005
-1.3454973 -0.5282281 0.35412234 0.2606195 -0.005708633 0.48845443 -0.29585528 0.60534215
0.0603057 -0.10742262 -0.0469521 0.009717687 -0.1923621 0.2969173 -0.12994842 -0.2033407
0.330456 -0.2829609 0.128034 -0.17314018 0.32636237 -0.27931485 -0.25549763 -0.25401738
0.12120713 -0.15083162 0.25128746 -0.14351875 -0.32486123 0.09009446 -0.012728006 -0.0067452835
-0.21266675 -0.22990498 0.035875343 -0.37326136 0.22200522 -0.20289858 -0.27091876 -0.33601764
0.74327624 0.27613017 0.046536155 -0.09292692 -0.64843124 0.15109496 0.5387291 -0.20549044
0.45882437 0.07106051 -0.07130545 -0.035166513 -0.7929289 0.45990425 -0.14944859 0.123080775
0.5411086 -0.52142805 -0.28719133 0.48025203 0.22766475 0.57154113 -0.18237388 -0.36456946
-0.19443843 -0.9236657 -0.07487554 -0.36227745 -0.5077694 0.16629234 -0.02973891 0.55377275
-0.39078143 -0.15334302 -0.082979046 -0.060496245 0.036127687 -0.17355694 0.25891003 0.28118107
0.23993528 0.64197785 -0.8630228 -0.20863067 0.72198445 0.111905225 -0.20367171 -0.4107494
0.54268014 -0.019193 0.34105605 0.43380365 -0.017331708 -0.7506204 0.3177459 0.6269068
0.6824208 0.12159865 0.5857542 -0.038581353 0.60464627 -0.13298635 0.5442888 -0.047487564
0.18226203 -0.32921603 0.1737943 -0.31064907 -0.2868265 -0.3440652 -0.35338008 -0.3325178
0.10389957 0.16117695 0.11994699 -0.27855256 -0.043630242 -0.15680785 -0.34556732 0.025691032
-0.2630726 -0.159586 0.15275964 0.24061534 -0.24416351 -0.2550842 0.11860672 0.11051595
-0.21011713 -0.30590966 0.1362353 -0.31939682 -0.1280042 -0.13832654 -0.046233743 -0.14306958
-0.99821466 0.042361043 -0.11190871 0.74374074 0.28978965 0.27644736 0.6269714 0.10063825
0.18711628 -0.7061134 0.20890203 -0.34343323 -0.08265304 0.25002748 0.3267622 0.5016196
-0.2292944 0.21065718 0.11144039 -0.4978392 0.6981116 0.0015466586 -0.25897786 -0.319738
0.1627306 0.023794672 -0.06550632 0.41212893 0.0780312 0.694904 0.31180328 0.36250043
0.24010836 0.07565837 -0.1401055 0.033015262 0.11822291 -0.32247633 0.061935022 0.29692578
0.3925919 0.98440224 -0.75138426 -0.1668429 0.8759404 0.66798246 0.24096555 0.10310701
0.3796379 0.007089466 -0.33509022 0.7726418 0.17960641 -0.055465344 -0.02184818 -0.4468185
0.8225919 0.03399429 0.7416399 -0.43231735 0.20301783 -0.4614846 0.1749304 -0.23623478

sequential_194/dense_779/MatMul f4 [8, 16]
00000000: a669 2c3f 0611 53bf 87f8 2bbc e98e 063f
00000010: b724 5fbf a8bc 22be 6f15 e2bd 82d1 123f
00000020: eec3 283e cebb 6cbe 42c6 ca3e 9a6b dbbe
00000030: 4249 253f 4e8d 08bf 2854 34bb 3c7a 9e3f
00000040: 2f99 e3bd 89d6 4cbf 0166 a2be 4fc3 38bf
00000050: 4aed 5a3f 0071 0c3d 2d46 5c3e 45be 6e3f
00000060: 74d3 c7bd 379c 18be 9361 093e f426 413f
00000070: 6e22 b2bd d7f4 123f 6eda 73bf dc41 73bf
00000080: 4216 033f d72f 40bf 4c97 d93e 0fc8 8fbf
00000090: 39fa fbbe 3c7e 823e 1b7e 193f 3d00 a7be
000000a0: 1ec9 d83e 8996 633e b9aa c2bf ada9 0d3f
000000b0: ddd7 5b3f ff33 a5be d899 913e 6c45 bebf
000000c0: 705f ba3e 47b9 433f fb37 df3e b2bd 8fbc
000000d0: f908 303f 6877 21be a214 b73e cb5a 23bf
000000e0: ea59 88bf 93a7 4e3d 47af 97bd 0105 8dbf
000000f0: 32da 29bf 48a6 6f3f 3d38 0f3e ef0a a1bd
00000100: f4c4 be3e 0c3d d73e 44a1 3c3e dba6 86bf
00000110: 0eaa e53e b007 a23d 5539 46bf 4522 913e
00000120: 4753 113f 520a 213e a93d 913d 74a7 a6be
00000130: 2cc3 e3be 10b8 c93e 7d52 7cbf fab1 4fbf
00000140: b8c1 eabf 9327 163f 51ff 6c3e 1825 243e
00000150: aff1 0cbf 38c8 c93e cd34 233f 19a4 20bf
00000160: 4057 6a3e 84c5 de3e 0c75 2a3e 6da6 323d
00000170: a937 9b3e 98a3 0dbf f811 95bd 768e 81bf
00000180: e722 cebf 61f7 313f 6f0f 3cbe 8e48 653f
00000190: 3f2d ce3e 8056 05bc 7aef ff3e 5710 683f
000001a0: 4311 c9bf 2c34 23be 6cd0 7cbf 3594 0cbb
000001b0: d756 903e fe37 9abd 4328 d2be e0d8 e5bf
000001c0: e3ba 343e bb4d c4be c681 cabc 27f9 dc3d
000001d0: edf4 323f 20b2 f0bd 9f43 cdbf b313 4a3e
000001e0: 021a 26bf f960 c13e e4d6 263f 256a ad3c
000001f0: bd39 91bf 2ccc a3bd 1a97 403f b495 42be
0.67348707 -0.8244785 -0.010496265 0.52561814 -0.871654 -0.15892279 -0.110392444 0.57350934
0.16480991 -0.23118517 0.39604384 -0.4285553 0.6456491 -0.53340614 -0.0027515981 1.2381053
-0.11113202 -0.80014855 -0.31718448 -0.7217302 0.85518324 0.034287453 0.21511145 0.9325908
-0.09757128 -0.14903341 0.13416128 0.7545006 -0.08697973 0.57404846 -0.9525517 -0.9502237
0.5120584 -0.75073 0.42498243 -1.1232928 -0.49214342 0.25486934 0.59958047 -0.3261737
0.4234094 0.22225393 -1.520835 0.5533703 0.85876256 -0.32266232 0.28437686 -1.4864936
0.36400938 0.76454586 0.43597397 -0.017546508 0.6876369 -0.15768206 0.3575793 -0.63810414
-1.065244 0.05045278 -0.074064784 -1.1017152 -0.66348565 0.936131 0.13986297 -0.078634135
0.37259638 0.42038763 0.18420893 -1.051967 0.44856304 0.079116225 -0.7743123 0.28346458
0.56767696 0.15726593 0.07091839 -0.32549632 -0.44484842 0.3939824 -0.9856337 -0.81130946
-1.8340368 0.58654135 0.2314427 0.16029775 -0.5505628 0.39410567 0.6375244 -0.62750393
0.22884846 0.43510067 0.16646212 0.043615747 0.30315903 -0.5532775 -0.07278818 -1.0121601
-1.6104401 0.69518095 -0.18365262 0.89563835 0.40268895 -0.008138299 0.49987394 0.9064993
-1.5708393 -0.1593787 -0.98755527 -0.0021450643 0.28191254 -0.07530211 -0.41046342 -1.795681
0.17649417 -0.38340554 -0.024720084 0.107897095 0.6990498 -0.11752725 -1.6036261 0.19734077
-0.64883435 0.37769297 0.6517165 0.021168778 -1.1345745 -0.07997927 0.7523056 -0.1900242
