model/keypoint_classifier/keypoint_classifier.tflite (tflite, 6352 bytes, 6 tensors)

sequential/dense/BiasAdd/ReadVariableOp/resource f4 [20]
000000 79 95 e7 be 79 b3 79 3e 48 93 0b be 7c e2 ab be
       -0.45231226 0.2438487 -0.13630402 -0.3357123
000010 a8 e9 3f bf 4c e8 b2 be 6b f6 4c bf 37 5b c5 be
       -0.74965906 -0.34942853 -0.80063504 -0.38546154
000020 37 b6 c7 be 7d 49 d1 bd 2b bd 4b bd eb c5 8a be
       -0.39006206 -0.10219095 -0.04974095 -0.27104124
000030 30 9d 8e be 04 1b 28 be 5a 4f 27 bf 17 a7 ab be
       -0.278543 -0.16416556 -0.65355456 -0.33525917
000040 02 3e 41 bf 9d 8b 8f be 74 71 f3 be 15 f6 ac 3e
       -0.7548524 -0.28036204 -0.47547495 0.33781496

sequential/dense_1/BiasAdd/ReadVariableOp/resource f4 [10]
000000 84 01 64 3e 06 72 00 3f 52 a4 b9 3d e6 12 3d 3e
       0.22266203 0.50173986 0.09064545 0.1846424
000010 ef 7b 16 3e ea 47 0f 3f 1f 9a 93 3e 3a ca 9b 3e
       0.14695714 0.5596911 0.28828523 0.30427724
000020 53 74 ff 3e 3c 64 c5 bd
       0.49893436 -0.09638259

sequential/dense_2/BiasAdd/ReadVariableOp/resource f4 [4]
000000 85 9c 97 be 54 a2 a9 3d c0 37 92 3e a0 4a 19 bd
       -0.29611602 0.08282915 0.2855816 -0.037424684

sequential/dense/MatMul f4 [20, 42]
000000 b0 43 14 bd 50 e5 9d 3e b5 cd 3d 3e c3 3a f2 3e
       -0.036197364 0.30839014 0.18535502 0.47310457
000010 f4 33 21 3e 88 6c b0 3e cd 68 0a 3e b7 63 99 3e
       0.15742475 0.34457803 0.13516541 0.2995889
000020 68 e9 ae 3e cc 4e 8d 3e 09 ef 94 3c 52 ec e4 3a
       0.3416245 0.2759918 0.018180387 0.0017465448
000030 08 04 27 bd 0f fd 37 3d 96 e9 9a bc 48 22 71 ba
       -0.04077533 0.04491907 -0.01891021 -0.0009198529
000040 14 b2 12 3d 76 f0 87 bb e7 da 37 bb 8d d1 61 bd
       0.03581436 -0.004148538 -0.002805406 -0.055131484
000050 1f b0 04 bd cf 0c 8a 3d b8 d1 1f be 97 61 61 be
       -0.032394525 0.06740724 -0.15607345 -0.22009884
000060 b1 b2 de be 02 a4 cc be 78 93 25 3e 5c 8e 40 3d
       -0.43495706 -0.39968878 0.16169536 0.047010764
000070 85 e0 81 bd 63 d2 e0 bc c8 4b 6f be 64 d1 36 be
       -0.06341652 -0.02744407 -0.23368752 -0.17853314
000080 b0 c3 bd be 82 24 13 bf f0 1d 80 3e b2 3d c2 bc
       -0.3706336 -0.5747758 0.2502284 -0.02371106
000090 aa 66 92 3c 00 ca c7 3c 1c 5b 1a be 5c 81 b9 bd
       0.01787122 0.024388313 -0.15073818 -0.090578765
0000a0 8d f8 07 bf 5c 5b fd be 14 c8 6f be f0 f9 22 bd
       -0.53113633 -0.49483764 -0.23416167 -0.03978914
0000b0 6f d9 a1 be aa d2 4d 3e 7f 33 f8 bd 94 f9 a9 be
       -0.316112 0.20099893 -0.12119197 -0.33198225
0000c0 6a 94 de be f7 bf bb be 94 9a e7 be 35 8e c5 be
       -0.43472606 -0.36669895 -0.4523512 -0.38585058
0000d0 13 ac 8f bd 25 0e a3 3e ae 01 62 3c 6c 5b a7 3d
       -0.070152424 0.3184673 0.013794346 0.08171734
0000e0 f8 40 16 3c 1a d0 06 bd 44 4b 82 3e ce dc 82 be
       0.009170763 -0.032913305 0.25448048 -0.25559086
0000f0 88 d5 7a be 24 55 af 3e 5a 4d 08 be 67 da d9 bc
       -0.24495518 0.34244645 -0.13310757 -0.0265934
000100 f1 fb 96 3e 9c 58 82 3e 50 1e 0c 3f 57 ab 0b 3f
       0.2948909 0.2545823 0.54733753 0.5455832
000110 2d 3c b6 be 9c 99 85 3e d1 d5 8c be 7f c4 55 be
       -0.35592785 0.26093757 -0.2750688 -0.20875739
000120 12 3c d9 3e ce d9 06 3c 03 5c 2f 3f d8 53 1f 3f
       0.42428643 0.00823064 0.68499774 0.6223731
000130 c6 0a df be b5 9b 88 3e 35 ec 1d be 0f 0b 2e 3e
       -0.43562907 0.26681295 -0.15422137 0.16996406
000140 f0 56 9a 3e fe 7d 51 3e 15 d0 41 3f 11 3d 54 3f
       0.30144453 0.20458218 0.75708133 0.8290568
000150 00 74 f9 b9 08 2f 71 3e 00 43 d2 bd e2 6c 3e 3f
       -0.00047579408 0.23553097 -0.102666855 0.7438489
000160 9f be 1b 3d 46 87 f0 3e c4 dd d7 3c b0 a5 21 3e
       0.038023587 0.46978205 0.026350863 0.15785861
000170 89 8c 42 3e 17 df 49 3e 65 09 2d bf 74 28 18 be
       0.18998922 0.19714008 -0.6759246 -0.14859182
000180 25 3e b2 be 9c 68 49 be eb 41 00 be 7a 8e 35 be
       -0.34813038 -0.19668812 -0.12525146 -0.17730132
000190 a8 70 b5 bc f2 f2 15 bf 96 62 3e bf a0 8f b1 bd
       -0.022148445 -0.5857383 -0.7436918 -0.086699724
0001a0 02 d9 88 bd 5f 24 7a 3d 6e db 61 3e ca fb 0f 3e
       -0.06682016 0.061069842 0.22056362 0.14060894
0001b0 41 78 9b 3e 77 41 b8 3d e9 71 15 bf 2b 86 70 bd
       0.30365184 0.089968614 -0.5837694 -0.058721703
0001c0 4a ca 2c be 02 90 cc 3d 7c 19 64 3e 20 71 ca 3d
       -0.16874042 0.09988405 0.22275347 0.09884858
0001d0 55 9b 9c 3e 25 17 78 3d 1e 36 19 be 1a 0f f4 bc
       0.3058726 0.060568947 -0.1496205 -0.029792357
0001e0 e5 60 ab bd 4a b4 b5 3d 87 77 cd 3d 5c 1d 13 3e
       -0.083680905 0.08872278 0.10032564 0.14366668
0001f0 85 09 45 3e 27 cb ee 3d f4 4e c0 3d 20 9f 84 3c
       0.19241913 0.11659842 0.09390059 0.016189158
000200 38 dc 4e 3e 54 b7 ed 3e 90 83 62 3c 55 13 87 3e
       0.20201194 0.4642893 0.013825312 0.26381937
000210 2f 19 8e bd 2a e3 19 3e 47 1b 67 bc 3e 62 9f 3e
       -0.06938397 0.15028062 -0.0141056245 0.3112964
000220 05 71 3e 3e f7 68 e5 3d 40 30 70 bc 51 54 64 3d
       0.18597801 0.11201661 -0.014659941 0.055744473
000230 ff 68 99 bd 4d 0c 50 bc aa dc b4 bd 9c 77 bf bc
       -0.074907295 -0.012698245 -0.08831151 -0.023372464
000240 03 7e 38 3e 50 b2 cb 3d f6 96 70 bd 90 b0 27 bd
       0.1801682 0.0994612 -0.058737718 -0.040939867
000250 a6 c0 80 bc c1 15 8d be be 71 65 3e af d2 38 bf
       -0.015716862 -0.2755566 0.2240667 -0.7219648
000260 52 e7 10 3e 9a e6 40 3d 35 85 46 be 9e dc dd 3d
       0.14150742 0.04709492 -0.19386752 0.10833095
000270 c8 04 37 3c a7 c2 80 be a1 86 35 3f c1 91 e4 be
       0.0111705735 -0.25148508 0.7090855 -0.4464245
000280 a1 2c 55 bc a5 ae 64 3e 2a d5 18 be 35 9e 56 3e
       -0.013011129 0.22332247 -0.14925066 0.20958789
000290 5a 4a 36 be 0e 68 e5 bb ea 4e 1d 3e 76 2e 8f be
       -0.178018 -0.0070009297 0.15362135 -0.27965134
0002a0 20 79 92 3e 58 17 69 3e b5 8b 73 3f 60 0a 18 be
       0.28608036 0.22762811 0.9513505 -0.14847708
0002b0 4a c7 09 3f 8d 57 2a 3e f2 50 8e 3e d5 c2 23 3d
       0.53819716 0.1663496 0.2779613 0.03998073
0002c0 c5 57 1f 3e 58 6a 9d be a0 13 b9 3e f8 6c 33 3f
       0.15560825 -0.30745196 0.36147785 0.7008815
0002d0 68 4b c8 3d 85 18 68 3e eb f8 5c be 00 c2 25 3e
       0.097800076 0.22665603 -0.2157933 0.16187286
0002e0 cd c5 93 be b0 58 4e bd 36 22 7e 3e b7 98 3e 3e
       -0.28861848 -0.050377548 0.24817738 0.18612944
0002f0 d7 8c 30 3e c2 d5 4a 3d d3 d3 89 bd e4 74 be bb
       0.17241226 0.04952026 -0.067298554 -0.0058122743
000300 69 c7 38 be 83 6f 3e 3c c0 25 94 3e 64 55 c1 bd
       -0.18044819 0.011623266 0.2893505 -0.09440115
000310 81 e5 19 3e 60 a9 ae 3b 1b 9d 0f be 66 a1 0b be
       0.15028955 0.0053302497 -0.14024775 -0.13635787
000320 45 6d 53 be c1 c1 b8 3c 5f cf 6d 3e 3d 36 6c be
       -0.20647152 0.022553327 0.23223637 -0.23067565
000330 96 a8 a7 3e f8 94 f8 bb 46 f4 6a 3d af 49 26 bd
       0.32745808 -0.007586118 0.057361864 -0.040597614
000340 46 ae 4e bd 71 2e 92 bd d0 1c 8f be c4 2f 75 3e
       -0.05045917 -0.07137764 -0.2795167 0.23944002
000350 9b 32 b1 3e 37 a7 c3 3e 82 62 87 3e 3e 64 60 3d
       0.3460892 0.38213512 0.26442343 0.0547831
000360 d5 13 84 3e c3 5f a7 be 56 6d 97 3e 4a 86 c8 be
       0.2579638 -0.32690248 0.29575604 -0.39164954
000370 d9 da 04 be f9 c7 1a 3e d2 b6 4d 3d 31 a3 ca 3c
       -0.12974109 0.15115346 0.05022318 0.024736019
000380 8f ee 2c 3c 6a 76 1a 3c de 71 97 3c 6a 44 6d bc
       0.010554924 0.009427646 0.018486913 -0.014481643
000390 99 09 71 bd ab 2c a5 3c bf 61 b5 bb 00 f5 30 be
       -0.058847044 0.0201629 -0.005535334 -0.1728096
0003a0 1b ff 64 be 48 6b db bd 85 5c a4 be 61 be b9 3e
       -0.2236294 -0.10713822 -0.32101837 0.3627806
0003b0 bd 7a 7d 3d 98 1c 92 3c e8 44 bf 3d c0 00 8f be
       0.06188463 0.0178359 0.09339315 -0.2793026
0003c0 7f a5 5f be ba dd 53 3e 17 31 3b bf 5a 48 2d 3f
       -0.21840475 0.2069005 -0.7312178 0.67688525
0003d0 25 45 62 3e 38 7d a7 be 4f ef 4f 3e 58 af b3 bd
       0.22096689 -0.32712722 0.20306133 -0.087736785
0003e0 7a e3 98 be 68 d6 81 3e f6 ae 05 bf 79 bc 17 3f
       -0.2986105 0.2535889 -0.52220094 0.5927196
0003f0 4d 49 1e be 80 ab 70 3e 74 f0 c4 bd ef 25 a8 be
       -0.1545765 0.23502922 -0.09616175 -0.3284144

sequential/dense_1/MatMul f4 [10, 20]
000000 2f ec b9 3e 9b de fa be 90 34 65 be 70 27 3a 3f
       0.36313006 -0.4899796 -0.22383332 0.72716427
000010 41 a9 01 bf 88 e8 48 bf 23 56 fd be 48 9a d4 3e
       -0.50648886 -0.78479815 -0.4947978 0.41523957
000020 99 84 2f 3f fa 41 bf 3d eb 38 a1 be 9c 3a 00 3f
       0.685617 0.09338756 -0.31488737 0.5008943
000030 25 60 b8 bc 03 44 80 bd db ca c2 3e a5 88 40 3f
       -0.022506783 -0.06262972 0.3804539 0.75208503
000040 5f 56 36 be c3 2f 83 3e 16 1b 3a 3f 46 3a b5 be
       -0.17806385 0.25622377 0.7269758 -0.35396022
000050 14 99 fb 3d 20 f8 f2 bd 88 23 82 3e a0 e3 3c bd
       0.12285057 -0.11863732 0.25417733 -0.046115518
000060 f3 0c 07 3f e4 3a 9b be 2d 59 5e 3f b9 23 2b 3e
       0.52754134 -0.30318367 0.8685482 0.16712846
000070 9d 39 d9 be 73 05 85 3d 71 50 6f 3b af 78 bf be
       -0.42426768 0.0649518 0.0036516453 -0.37396762
000080 8d 9c 3d be 0d 75 b2 bd 90 74 52 bc 7e 25 3e be
       -0.1851675 -0.08713732 -0.0128451735 -0.1856899
000090 ca 47 61 3f be 4e 0a 3d 85 39 8e 3d 98 50 94 3e
       0.88000166 0.0337665 0.06944565 0.28967738
0000a0 f7 96 2b 3f 86 69 20 3f c2 e7 05 3d e5 bd 94 3e
       0.6702723 0.62661016 0.032691725 0.29051128
0000b0 2c 8a af be 1f 70 5c 3f 02 f1 de bd 0d b2 07 3f
       -0.34285104 0.86108583 -0.10885812 0.5300606
0000c0 de 52 22 3f 98 b1 03 3d 90 0c 6a bd e3 c4 0f 3f
       0.63407695 0.03215179 -0.057140887 0.561598
0000d0 98 91 b9 bd f7 50 ec 3d 3e 90 9d 3e 28 b5 01 bf
       -0.09060973 0.1153888 0.3077411 -0.5066705
0000e0 50 38 b8 bd a3 70 90 be 12 32 1d 3f fe ea 24 3e
       -0.08995116 -0.28210935 0.61404526 0.16105267
0000f0 6b fd f7 3c ce f3 49 3e 0b 31 0b 3f 7c 40 4f 3e
       0.030272206 0.1972191 0.5437171 0.20239443
000100 24 b6 74 3f 6b cc 04 3f 94 d2 09 3f f0 d3 1b 3d
       0.95590425 0.5187442 0.5383694 0.038043916
000110 53 66 3d be 1a e2 2b 3f 37 02 4a 3e 2e 84 e1 3e
       -0.18496065 0.6714188 0.19727407 0.44046158
000120 98 21 e2 3e 5d 07 ce 3e 3b 6a 60 3f 7f 83 94 be
       0.44166255 0.40239993 0.87662095 -0.29006574
000130 f8 68 05 3f 1a 89 a5 bc b0 cf 97 bd 19 81 2d 3f
       0.52113295 -0.020206977 -0.0741266 0.6777511
000140 30 a4 23 3e d5 7f 2d bf 7d 73 0d 3f 55 b0 ac be
       0.15980601 -0.6777318 0.55254346 -0.3372828
000150 86 b0 72 bd 57 02 2c 3f 0d a3 bb be b3 dc 03 3d
       -0.059250377 0.6719107 -0.36647835 0.032192897
000160 53 76 cb 3e 06 9c 9f 3e b2 64 6d 3e 5f 6a b5 3e
       0.39738712 0.31173724 0.23182943 0.35432717
000170 a2 48 c1 bc 19 e7 a0 3f ff a3 6a 3e 7e fd 4a 3e
       -0.023594204 1.2570525 0.22914122 0.19823262
000180 e1 ec e4 be 16 1a 8c 3f 59 82 8b 3d e3 dd ed 3e
       -0.44711974 1.0945461 0.06811971 0.4645835
000190 6c fb 98 bf f2 a9 93 3e ce 6b e4 3e b6 cd 62 bf
       -1.1951728 0.28840595 0.44613498 -0.8859514
0001a0 bf 18 dc bd 4b e5 a2 be 4c 37 db be b6 78 97 bf
       -0.107469074 -0.31815562 -0.42815626 -1.1833713
0001b0 2e 25 07 bf 4c e5 e8 3e f1 31 60 3e bc bb c7 bd
       -0.52791107 0.4548744 0.21894051 -0.09752604
0001c0 ba 8f 53 3e 3e 6a 23 3f 99 af 8d be bf 4e 33 bf
       0.20660296 0.6383399 -0.27673033 -0.7004203
0001d0 20 28 d3 bc c4 84 9b 3e 8e a7 aa bf 80 18 73 3e
       -0.025775969 0.3037473 -1.3332384 0.23739815
0001e0 50 64 8b be e4 b9 f3 3e 38 72 a6 3e 3b 8d 0a be
       -0.2722497 0.4760276 0.32509017 -0.13530438
0001f0 51 8f 1b bf 0e 1b 87 3e 6b d2 51 be 75 8b 0c 3e
       -0.6076556 0.2638783 -0.20490424 0.13725074
000200 d3 fd 08 3f 1d 2c 2a 3e 75 54 49 3f af bc 48 bd
       0.53512305 0.1661839 0.78644496 -0.049008068
000210 4f a0 5e bd 7e 5a 16 3e 4d 02 17 be e6 dd ad 3e
       -0.0543521 0.14682958 -0.14746971 0.33958358
000220 b3 4a 7a be da 50 99 3f 07 3b 40 3d af 48 f2 3e
       -0.24442558 1.1977799 0.046931293 0.47321078
000230 27 53 03 3f f0 c5 97 3e 8a 34 c5 bc 7a 58 8c 3e
       0.51298755 0.29643202 -0.024072904 0.27411252
000240 5f 1d f8 be b8 71 eb be 63 a1 66 be 64 40 c9 3e
       -0.48459908 -0.45985198 -0.22522502 0.3930694
000250 50 c5 f8 be a4 76 d8 ba 4b 57 5c bf 62 1f e5 be
       -0.48588037 -0.001651485 -0.860707 -0.44750506
000260 eb 51 16 bd 94 24 e8 3e d6 4e 40 be fb ef f4 be
       -0.036699217 0.45340407 -0.18780074 -0.4783934
000270 17 ee 13 be f5 eb 41 3d 02 12 c6 bf 61 cd 07 3f
       -0.14446293 0.047344167 -1.5474246 0.5304776
000280 c6 bd 58 3c 10 06 af 3a ba 7d 36 3e 57 b4 5a bd
       0.013228839 0.0013353247 0.17821398 -0.05339464
000290 43 db ed be fb c8 44 be f7 e8 2f 3e 09 46 95 3e
       -0.46456346 -0.19217293 0.17178713 0.29154995
0002a0 70 31 e8 bd 53 d6 2c 3e 7f 5b 1a be b1 3b e8 be
       -0.113375545 0.16878633 -0.15073965 -0.4535804
0002b0 55 33 2e bf 92 f6 36 bf 04 28 95 bd 4a 33 c3 bd
       -0.68047076 -0.71469986 -0.07283023 -0.09531267
0002c0 d9 21 9c be c7 67 17 bf 77 54 ab 3e 60 7e 21 be
       -0.30494574 -0.59142727 0.3346288 -0.15770864
0002d0 5d 2a 04 3e 65 75 1e 3f 4b 53 fa 3e 5d 50 ac 3e
       0.12906785 0.6189788 0.48891672 0.33655062
0002e0 65 20 14 3f 70 ba 0b 3f 06 49 7d 3e 9c cd 91 3e
       0.5786193 0.54581356 0.24734887 0.2847718
0002f0 d0 e0 3f 3f 82 80 08 3f 15 0c 1c 3e 7d 4a 00 3f
       0.7495241 0.5332109 0.15238984 0.5011366
000300 68 07 ed 3e a4 47 0e be bf 38 51 3f 51 d2 e1 3e
       0.46294713 -0.13894516 0.8172721 0.4410577
000310 f4 71 18 3f 38 9c 8e 3e 35 35 7e bd 53 a1 ae 3e
       0.5954888 0.2785356 -0.06206246 0.34107456

sequential/dense_2/MatMul f4 [4, 10]
000000 1b ac 28 3f ec 5f 93 bf 6d ef 07 3f 13 4c 60 3e
       0.6588761 -1.1513648 0.5309971 0.2190402
000010 af 62 4b 3f be bb 52 bf e0 e1 d8 3e 24 99 a4 3a
       0.79447454 -0.8231772 0.4235983 0.0012557846
000020 21 6b 4a bf dd 7e 29 3e 17 00 24 bf d5 25 9a 3f
       -0.79069716 0.16552301 -0.6406264 1.2042795
000030 b6 44 5d be 6b 0c 64 3f 5d 07 38 3d 04 ae 2d bf
       -0.21608242 0.8908145 0.044928897 -0.6784365
000040 0a 9e 22 bf 32 80 83 bf 0a d3 2d 3f ee 5e b2 3e
       -0.635224 -1.0273497 0.67900145 0.3483805
000050 72 d8 33 bf 65 38 d9 3e 21 44 9a bf e2 ce 38 3e
       -0.70252144 0.42425838 -1.2052041 0.1804767
000060 3d 3d a5 3e f7 b2 89 3f b1 8d fb 3e d7 de 05 3e
       0.32273284 1.0757741 0.4913154 0.13073288
000070 48 f5 f3 be 10 ae 06 bf 55 08 1d 3f 0e 4d 43 3e
       -0.47648072 -0.5260935 0.6134084 0.19072363
000080 8b 01 e1 3e 98 f9 af bf 67 66 c0 bf e2 6f 7b bf
       0.4394649 -1.3748045 -1.5031251 -0.98217595
000090 c4 6f c7 bf 50 75 2b 3f 38 22 53 3f d3 ef 99 bf
       -1.5580983 0.6697588 0.8247409 -1.2026314
